models/demo_checkpoint.pt (torch, 7880 bytes, 2 tensors)

output_layer.0.weight f4 [3, 512, 1, 1]
0	0x3c2441df	0.0100254705
1	0x3d0d01c4	0.034425512
2	0xbccaa97c	-0.02473902
3	0x3ce1bef7	0.02755688
4	0xbc9f2170	-0.019425124
5	0x3c4eb0e3	0.012615415
6	0x3c8d62bb	0.017258992
7	0xbd065b97	-0.03280219
8	0x3b054099	0.0020332693
9	0xbc419687	-0.011815674
10	0x3a8fa023	0.0010957759
11	0x3d0e023b	0.034670096
12	0xbcf8a7d7	-0.03035347
13	0x3bc9520d	0.0061438144
14	0x3c7f02cb	0.015564631
15	0xbd1b10ce	-0.037857823
16	0x3d2c8494	0.042118624
17	0xbd0bb2dc	-0.03410612
18	0xbd266978	-0.040627927
19	0xbc1ace16	-0.009448549
20	0x3cb5df12	0.022201095
21	0xbcc42c5c	-0.023946933
22	0x3c8dd5f2	0.017313931
23	0xbd16095f	-0.03663003
24	0xbcd9bc55	-0.026579062
25	0xbcefd445	-0.029276023
26	0xbc4f3eaa	-0.012649218
27	0x3bfec69a	0.00777514
28	0xbd0e1fc1	-0.03469825
29	0xbd106739	-0.03525469
30	0xbceddac7	-0.029034985
31	0x3cf72606	0.030169498
32	0x3d2de637	0.042455878
33	0x3d305b8a	0.04305605
34	0x3c43ce83	0.011951092
35	0xbc818489	-0.015810268
36	0x3cdee924	0.02721078
37	0xbcb89d70	-0.02253601
38	0xbccaab4f	-0.02473989
39	0xbd3446b3	-0.044012737
40	0xbb99898c	-0.0046855863
41	0x3ba82a62	0.0051320055
42	0xbd295d2b	-0.041348618
43	0xbd07ec92	-0.033184595
44	0xbb76c00f	-0.0037651097
45	0x3b7ba677	0.0038398781
46	0xbc95aa1e	-0.018269595
47	0x3aa53e4f	0.001260707
48	0xbd05f741	-0.032706503
49	0x3cc3dd79	0.023909317
50	0xbae5349b	-0.0017486991
51	0x3cad73a2	0.021173302
52	0xbd2de135	-0.042451102
53	0xbcbf4399	-0.023347663
54	0xbce712df	-0.02820724
55	0xbd1847a8	-0.03717771
56	0xbc366675	-0.011132826
57	0x3d2330fa	0.03984163
58	0xbc10e83c	-0.0088444315
59	0x3cf9e905	0.03050662
60	0xbc920229	-0.017823296
61	0xbc8b0b28	-0.016973093
62	0xbbdc6494	-0.006725857
63	0xbd2deea0	-0.0424639
64	0xbc92c6c5	-0.017917046
65	0x3d2eeaab	0.042704266
66	0xbcdf8c05	-0.027288446
67	0x3a00060c	0.00048837136
68	0xbc84c59e	-0.016207512
69	0x3cf112d5	0.029427925
70	0x3d2aa241	0.041658644
71	0x3c22ab38	0.009928517
72	0x3d0a2ce1	0.033734206
73	0xbd2195a8	-0.039449364
74	0xbd10ee77	-0.035383668
75	0xbb4b9d70	-0.0031069182
76	0xbcf88edc	-0.030341558
77	0x3d0a1913	0.03371532
78	0xbcebfa82	-0.028805975
79	0x3c5667dc	0.013086285
80	0x3d05e124	0.032685414
81	0x3ce2b4e5	0.027674148
82	0x3c800e9e	0.01563197
83	0xbc3360d1	-0.010948376
84	0x3c6527db	0.013986553
85	0x3c0140bb	0.007888968
86	0xbcf7457b	-0.030184498
87	0x3c961d82	0.018324617
88	0x3c0a0c6c	0.008425813
89	0x3cf9adae	0.030478325
90	0x3b857dfc	0.0040738564
91	0xbd282319	-0.041049097
92	0xbcafcd80	-0.021460295
93	0x3d00d470	0.031452596
94	0xbaa2e4bd	-0.0012427788
95	0xbd2b9fa2	-0.041900285
96	0xbd1522b6	-0.036410056
97	0xbce30ab8	-0.027715072
98	0xbcda6818	-0.026660964
99	0x3d06951a	0.032857038
100	0xbd1117b3	-0.035422992
101	0xbce63379	-0.028100716
102	0x3ccb522c	0.024819456
103	0xbced3805	-0.028957376
104	0x3c84dba6	0.016218018
105	0x3d23250c	0.039830253
106	0x3bb1fc6a	0.0054317014
107	0xbd1517ce	-0.036399655
108	0x3b7c5ac7	0.0038506256
109	0x3d2e7558	0.042592376
110	0x3cb9f39c	0.02269917
111	0x3d23b201	0.03996468
112	0xbb3ab20e	-0.0028487477
113	0x3c8c2e36	0.017111879
114	0x3c9bab72	0.01900265
115	0x3d1a4321	0.037661675
116	0xbd146e7d	-0.036238182
117	0xbc0e9173	-0.00870167
118	0x3c7ecfe2	0.015552493
119	0xbc4213aa	-0.011845509
120	0x3c978f80	0.018501043
121	0xbbf2df69	-0.0074118865
122	0x3d254678	0.040350407
123	0xba68d2bd	-0.00088815
124	0xbb92d3ad	-0.0044808
125	0x3c5381f3	0.0129094
126	0xbd23b42e	-0.039966755
127	0x3b17eb0d	0.0023180873
128	0xbc23a934	-0.009989072
129	0xbd093022	-0.03349317
130	0x3cfc0091	0.030761989
131	0xbd15c150	-0.03656131
132	0x3c1fff5c	0.009765472
133	0x3d14c1c1	0.03631759
134	0x3cc452a7	0.023965193
135	0x3b201e5c	0.0024432158
136	0x3c8f593a	0.017498601
137	0xbc83557b	-0.016031971
138	0x3c953974	0.018215872
139	0xbc28ea9b	-0.010309841
140	0xbd14d6e0	-0.036337733
141	0xbcd56391	-0.026048454
142	0x3cbbf008	0.022941604
143	0x3c2f2ff0	0.010692582
144	0xbc261e16	-0.010139009
145	0x3c2d73a2	0.010586651
146	0x3cec5b67	0.028852178
147	0xbd30e6d2	-0.043188877
148	0xbd160b9d	-0.03663217
149	0x3d0064d7	0.03134617
150	0xbb784d19	-0.003788775
151	0x3b86976a	0.0041074054
152	0x3ca89fe8	0.020584062
153	0xbcb0a955	-0.021565119
154	0x3d15b6df	0.036551353
155	0x3c796194	0.015221018
156	0xbcc3f337	-0.023919685
157	0x3be91cb8	0.0071140192
158	0xbc99299d	-0.0186966
159	0xbc48d20b	-0.012257109
160	0x3b64bc92	0.0034902436
161	0x3afe4703	0.0019399825
162	0x3c0f18f3	0.008733976
163	0x3d3270a2	0.043564446
164	0x3d2d77bc	0.042350516
165	0xbd29a5f6	-0.04141804
166	0x3d2e5d01	0.042569164
167	0xbcd7ebf0	-0.026357621
168	0x3d12f312	0.03587634
169	0x3c40a23f	0.0117574325
170	0x3bf32576	0.007420237
171	0x3cb776f6	0.022395592
172	0xbcbfc050	-0.023407131
173	0xbd141055	-0.036148388
174	0x3827ac36	3.9976287e-05
175	0x3d2c0f54	0.042006806
176	0xbcf0da51	-0.029400976
177	0x3d186ed2	0.03721506
178	0x3c88c94f	0.016697554
179	0xbbf49a04	-0.007464649
180	0x3c2bc178	0.010483138
181	0x3ca02306	0.01954795
182	0x3d018644	0.031622186
183	0xbc6f4081	-0.014602781
184	0xb98ba0f4	-0.00026632065
185	0xbc9dcb9b	-0.019262126
186	0xbd33e38e	-0.043918185
187	0x3caf7de0	0.021422327
188	0xbc6ce481	-0.014458776
189	0x3c8a0c94	0.0168517
190	0xbccc3c0f	-0.024930982
191	0xbcd6e712	-0.02623323
192	0x3d0f42ba	0.034975745
193	0xbcaf25c6	-0.021380316
194	0xbd0001f9	-0.03125188
195	0x3d0d2df2	0.034467645
196	0x3c2d3086	0.010570651
197	0xbc884961	-0.016636552
198	0x3d05a46b	0.032627504
199	0xb8ae5e3c	-8.314519e-05
200	0x3d33031f	0.04370415
201	0xbba3ce9d	-0.0049989955
202	0xbcb4aef3	-0.022056079
203	0x3d153235	0.036424834
204	0x3c514186	0.01277197
205	0x3c16f001	0.009212495
206	0x3c800c93	0.015630996
207	0xba6372b5	-0.00086764555
208	0xbc41372e	-0.011792941
209	0x3c0a95b6	0.008458545
210	0xbd337bb1	-0.043819133
211	0xbcd40edd	-0.025885994
212	0xbcc8049b	-0.024416259
213	0x3cdcea91	0.026967319
214	0x3cb6b11d	0.022301251
215	0xbd195ccd	-0.037442017
216	0x3d183783	0.037162315
217	0x3d1432da	0.03618131
218	0x3cbb6852	0.022876892
219	0xb95c85fd	-0.0002103075
220	0xbbafa55d	-0.005360289
221	0xbc80f112	-0.015739951
222	0xbb344f39	-0.002751304
223	0x3b11c600	0.0022243261
224	0x3becb225	0.007223385
225	0x3ba4120e	0.005007035
226	0xbd195034	-0.037430003
227	0x3d024693	0.031805586
228	0xbcede48b	-0.029039642
229	0x3cbd6ae5	0.02312226
230	0xbc4a6f75	-0.012355675
231	0xbd091df8	-0.033475846
232	0x3c46160d	0.012090218
233	0x3d203d6b	0.039121073
234	0x3d273268	0.040819556
235	0x3c289446	0.010289257
236	0xbc65e7ae	-0.0140322875
237	0x3ce7352b	0.028223595
238	0x3af0a708	0.0018360326
239	0xbc7ed244	-0.015553061
240	0x3d1b6360	0.03793657
241	0xbcac4db2	-0.021033142
242	0x3ba75580	0.005106628
243	0xbb14ac60	-0.0022685751
244	0x3cecc2d7	0.0289015
245	0xbc9847d9	-0.018588947
246	0xbd19c5e9	-0.037542257
247	0x3b14a68b	0.0022682275
248	0x3d02de02	0.031950004
249	0x3d1096c5	0.035300035
250	0xbcec77f7	-0.028865797
251	0xbcabba82	-0.020962957
252	0x3c835dd5	0.016035954
253	0x3c243996	0.010023495
254	0xbc799ea1	-0.015235574
255	0x3c586f51	0.013210134

output_layer.0.bias f4 [3]
0	0xbc1f5fdd	-0.009727445
1	0xbd194530	-0.037419498
2	0xbc1759b7	-0.009237698
