models/your_actual_checkpoint.pt (torch, 7986 bytes, 2 tensors)

output_layer.0.weight f4 [3, 512, 1, 1]
-0.009286979 -0.010887236 -0.039404675 0.035485454 -0.008124632 0.012154956 -0.037059523 0.02931042
-0.009929513 0.007325786 -0.033182736 0.004647981 0.037931357 -0.027217396 0.029569175 0.014329512
-0.0041896864 0.019017437 0.041074667 -0.04413311 0.029195728 -0.023800146 0.004072044 -0.028549626
-0.018955845 -0.01256563 0.009282248 -0.013079879 0.012340481 -0.022159617 0.009735568 0.024754783
-0.03331057 0.019407649 -0.004119064 0.018515721 -0.011123217 0.025297929 0.04062912 -0.019115513
-0.03583263 -0.00040894034 0.023110876 -0.042381 -0.00019093575 -0.0269807 0.012100829 0.013007212
-0.02235972 -0.008173275 -0.012396626 -0.031163452 -0.029216759 -0.017833069 0.022844888 -0.03647061
0.035313465 -0.04397066 -0.035483714 0.03251866 0.028962033 0.020835137 -0.027584158 0.04173625
-0.016781874 -0.014363209 0.018544186 -0.0044923746 -0.0047570355 -0.0115330685 -0.012031856 -0.029635182
0.0062103434 -0.014434668 0.02888674 0.013025725 -0.029615426 -0.032651156 0.018010091 -0.036784004
-0.027042713 -0.011805985 0.04403961 0.023623055 -0.033778455 0.02196022 0.026911959 -0.010454995
-0.01671182 0.009328673 0.015270346 0.017310912 0.034069274 -0.011042042 -0.006117125 0.023877686
0.029048007 0.011953763 -0.03920436 0.033073984 -0.034163017 -0.0032981962 0.025831597 -0.010047761
-0.027006868 -0.028640922 0.03955808 0.028954184 0.02270457 -0.002969867 0.029470725 0.007971655
-0.030658465 0.043206263 0.01812345 0.037873417 -0.01978727 0.0075496226 -0.02646388 0.038461216
0.02908145 0.03245542 3.0556464e-06 0.0042518056 -0.038392447 -0.03139213 -0.0073249643 0.008806736
0.0007619992 0.027276665 0.04330362 0.036155842 -0.010980982 0.019749396 -0.04215301 -0.034195755
-0.033224665 -0.011709948 0.00790697 0.033659022 0.016432766 0.00423177 -0.019034654 -0.033542123
0.01843227 0.009261343 -0.0142636895 0.010120933 -0.026076281 0.023361923 -0.033943363 -0.018765094
0.008463925 0.024275642 0.032486834 -0.03424897 -0.04104255 0.042495765 0.02288781 0.025867417
-0.000680071 0.04065241 -0.02603249 0.02945405 0.034185365 -0.043994613 0.0006966663 -0.020143254
-0.0111404285 0.011729505 0.03451865 -0.04137878 0.036409993 0.025679916 -0.020419426 -0.015828997
-0.03855856 0.001305662 0.0063386858 -0.0103404345 -0.010820597 0.016642973 0.010734001 0.035542358
0.03593659 -0.0013684081 -0.008496462 -0.0017554372 -0.0029979737 -0.0041259183 0.034240358 0.006657969
-0.029444352 -0.0035811227 -0.044030465 -0.014770273 -0.029486414 -0.02011364 0.029408053 -0.02270967
-0.020367369 -0.02048026 0.002287773 0.029226916 -0.0088535305 0.016956931 -0.0014449572 -0.0066877934
-0.001644923 0.016502498 -0.004613489 0.031218676 0.037103094 -0.031230576 0.01767201 -0.03989274
-0.04089849 -0.03778899 -0.041323457 -0.023904607 -0.014119342 -0.015745146 -0.0047882297 -0.025139673
-0.010921644 0.0006995797 -0.040159665 -0.012410677 0.009210208 0.013190609 -0.03328849 -0.0046520056
-0.022948015 -0.028058859 -0.037018504 -0.001166414 -0.0023411415 -0.021749476 -0.0029888754 -0.033904772
0.03885507 -0.027515028 -0.035045654 -0.038326874 -0.015107264 -0.022117507 0.033367112 -0.01000671
-0.026124729 0.009845688 0.01587157 -0.04012394 0.031417336 0.036800057 -0.042291127 -0.016153185
00000000: 6a28 18bc 6160 32bc cc66 21bd 3259 113d
00000010: 2d1d 05bc 9525 473c bacb 17bd 681c f03c
00000020: 65af 22bc 260d f03b 9fea 07bd 174e 983b
00000030: e95d 1b3d 04f7 debc 0e3b f23c 54c6 6a3c
00000040: a349 89bb 75ca 9b3c e93d 283d ecc4 34bd
00000050: e12b ef3c 86f8 c2bc c86e 853b e8e0 e9bc
00000060: 4a49 9bbc 12e0 4dbc 9214 183c fd4c 56bc
00000070: bb2f 4a3c 1688 b5bc ef81 1f3c 8bca ca3c
00000080: aa70 08bd cafc 9e3c 37f9 86bb 48ae 973c
00000090: 273e 36bc 9a3d cf3c b86a 263d 2398 9cbc
000000a0: 3cc5 12bd 0b67 d6b9 0553 bd3c b397 2dbd
000000b0: ed35 48b9 a106 ddbc 8e42 463c 341c 553c
000000c0: bb2b b7bc 33e9 05bc 381b 4bbc 7f4a ffbc
000000d0: fc57 efbc a816 92bc 3425 bb3c 3562 15bd
000000e0: daa4 103d 941a 34bd 5f57 11bd 4932 053d
000000f0: c941 ed3c 73ae aa3c 2cf8 e1bc a1f3 2a3d
00000100: 247a 89bc aa53 6bbc fae9 973c c534 93bb
00000110: e8e0 9bbb 32f5 3cbc 4321 45bc 7bc5 f2bc
00000120: 2380 cb3b 637f 6cbc e2a3 ec3c da69 553c
00000130: 0d9c f2bc 38bd 05bd e689 933c d3aa 16bd
00000140: ae88 ddbc e46d 41bc e162 343d 2385 c13c
00000150: 475b 0abd ebe5 b33c 7876 dc3c 6d4b 2bbc
00000160: 3ae7 88bc 4ad7 183c 7930 7a3c 9dcf 8d3c
00000170: 398c 0b3d aee9 34bc 2a72 c8bb 239b c33c
00000180: 16f6 ed3c b7d9 433c c094 20bd 9678 073d
00000190: 85ee 0bbd 8d26 58bb c99c d33c 5d9f 24bc
000001a0: 823d ddbc 5ea0 eabc a707 223d 5331 ed3c
000001b0: effe b93c 1aa2 42bb 976c f13c 8b9b 023c
000001c0: 7627 fbbc 0df9 303d a177 943c 2821 1b3d
000001d0: ea18 a2bc d362 f73b c7ca d8bc 8289 1d3d
000001e0: 393c ee3c f9ef 043d 9b0f 4d36 bb52 8b3b
000001f0: 6641 1dbd 0995 00bd 4106 f0bb 214a 103c
00000200: e7c0 473a 5073 df3c 235f 313d 2618 143d
00000210: 94e9 33bc 7cc9 a13c a2a8 2cbd d910 0cbd
00000220: 9616 08bd 15db 3fbc 3c8c 013c 0bde 093d
00000230: 029e 863c a9aa 8a3b 90ee 9bbc 7763 09bd
00000240: 46ff 963c e3bc 173c 40b2 69bc 45d2 253c
00000250: ed9d d5bc 8161 bf3c 3208 0bbd 41b9 99bc
00000260: 46ac 0a3c b6dd c63c ea10 053d a648 0cbd
00000270: 3c1c 28bd 0a10 2e3d 377f bb3c e8e7 d33c
00000280: cb46 32ba 2483 263d 1742 d5bc 9f49 f13c
00000290: f405 0c3d b233 34bd 7ca0 363a 7703 a5bc
000002a0: 5886 36bc 1c2d 403c 6e63 0d3d cc7c 29bd
000002b0: a522 153d b05e d23c a446 a7bc d0ab 81bc
000002c0: 95ef 1dbd bf22 ab3a c0b4 cf3b ed6a 29bc
000002d0: e048 31bc d856 883c aadd 2f3c dd94 113d
000002e0: 3f32 133d 285c b3ba bf34 0bbc b316 e6ba
000002f0: a779 44bb b632 87bb 9e3f 0c3d 182b da3b
00000300: 4835 f1bc 45b1 6abb 4a59 34bd 04ff 71bc
00000310: 7e8d f1bc 5cc5 a4bc 28e9 f03c a109 babc
00000320: 78d9 a6bc 38c6 a7bc 76ee 153b 496d ef3c
00000330: 660e 11bc 43e9 8a3c b864 bdba 4725 dbbb
00000340: 759a d7ba 3f30 873c c02c 97bb 4fbe ff3c
00000350: 6af9 173d 44d7 ffbc e4c4 903c 9266 23bd
00000360: 2d85 27bd a1c8 1abd c942 29bd 98d3 c3bc
00000370: d054 67bc f7fb 80bc 95e6 9cbb b7f1 cdbc
00000380: b2f0 32bc 0064 373a 767e 24bd 2756 4bbc
00000390: 6ae6 163c 6d1d 583c 8359 08bd da6f 98bb
000003a0: 7afd bbbc b1db e5bc b7a0 17bd 5ce2 98ba
000003b0: d66d 19bb f52b b2bc 02e1 43bb bbdf 0abd
000003c0: 7e26 1f3d 3267 e1bc 088c 0fbd a4fc 1cbd
000003d0: 7584 77bc c62f b5bc f4ab 083d 2ff3 23bc
000003e0: 8703 d6bc cf4f 213c 1805 823c 0059 24bd
000003f0: 77af 003d a8bb 163d 7639 2dbd af53 84bc

output_layer.0.bias f4 [3]
-0.0153941205 0.012815671 0.00047812966
00000000: 9f37 7cbc d2f8 513c 7aad fa39
